PI_model_5.pth (torch_old, 63828 bytes, 65 tensors)

inc.double_conv.0.weight f4 [8, 1, 3]
000000 2e d1 7b be fe 2d 77 bf 64 d0 b9 3d 78 fa fe be
       -0.24591514 -0.96554554 0.090729505 -0.49800467
000010 91 bb 41 be a1 5e b6 be 97 a7 e5 be f5 d1 83 be
       -0.18919207 -0.3561907 -0.44854423 -0.25746122
000020 8f ee 4d 3f 50 d8 34 be e4 63 46 3f a3 94 f7 3c
       0.80442137 -0.17660642 0.7749617 0.030222243
000030 5b 68 34 bf ed 34 e8 3d d9 1c 37 bd ac c8 e7 bc
       -0.70471734 0.1133822 -0.044705246 -0.02829393
000040 cc de fe 3e 3f b4 1d bf fc 93 0a 3f ec 91 45 bf
       0.49779356 -0.6160316 0.54132056 -0.77175784
000050 7b 64 7a be bf a4 91 be 08 29 79 be 1b b8 32 3f
       -0.24452393 -0.28446004 -0.24332058 0.6981217

inc.double_conv.0.bias f4 [8]
000000 30 5d 0d 3f da 54 ff 3d b7 35 be be 28 84 b3 3e
       0.5522032 0.12467356 -0.37150356 0.35061765
000010 b2 96 ac 3d 01 4c fa 3d 75 9d cf 3d 94 7b dd bc
       0.0842718 0.12221528 0.101374544 -0.027036466

inc.double_conv.1.weight f4 [8]
000000 d7 e1 a2 3f 8a 2c 2a 3f 95 21 a2 3f 75 4c 82 3f
       1.2725171 0.6647421 1.2666498 1.0179583
000010 4e 4a 40 3f 54 61 52 3f 8c f1 a0 3f bf 0a 88 3f
       0.7511338 0.8217976 1.2573714 1.062828

inc.double_conv.1.bias f4 [8]
000000 d9 52 7f 3e 37 10 9a be 2a 9b bf 3e 0f cf 58 3e
       0.24933948 -0.30090496 0.37423068 0.21172737
000010 74 6c 81 3e a4 ff d0 be d4 ac 72 3e 1a 30 7c 3e
       0.25278056 -0.40820038 0.23698741 0.24627724

inc.double_conv.1.running_mean f4 [8]
000000 4a 48 09 3f c1 ce df 3d 0f 42 bd be 90 06 b9 3e
       0.5362593 0.10928107 -0.3696446 0.3613782
000010 a3 59 9b 3d 78 f2 f7 3d f7 31 c1 3d 50 50 cf bc
       0.07585456 0.12106794 0.09433358 -0.02530685

inc.double_conv.1.running_var f4 [8]
000000 d5 a6 81 3e e6 db d3 3d 6c 2c 6d 3e 6d c2 24 3e
       0.25322595 0.10344677 0.23161477 0.16089793
000010 61 36 05 3e 7a 6d 25 3e dc 3a 79 3e 2f b3 23 3e
       0.13009025 0.16155043 0.2433886 0.15986322

inc.double_conv.3.weight f4 [8, 8, 3]
000000 80 04 93 be e7 e2 12 3f 13 d9 76 be 8d ec b5 3e
       -0.2871437 0.57377476 -0.24106245 0.35532036
000010 f9 21 a6 be b5 9c cc 3e fc 4e b6 be cd 5b b7 3e
       -0.32447794 0.39963308 -0.35607135 0.35812226
000020 13 62 dd be e6 12 85 be c5 48 ed be a9 68 c5 3e
       -0.43238887 -0.2599098 -0.4634458 0.38556412
000030 8a 83 a9 bd 10 e4 2e be 4b 55 a5 3e e4 07 4a bc
       -0.08277042 -0.17079186 0.32291636 -0.012330983
000040 d3 ce 43 be 11 19 85 3e 6e 01 7d 3e 01 99 c4 be
       -0.19121866 0.25995687 0.24707577 -0.38397983
000050 54 a5 e5 be 15 4c b1 be 6e c3 b2 3d 68 82 88 bd
       -0.44852698 -0.34628358 0.087286815 -0.06665498
000060 b1 d1 b0 be cf cf d7 3e 1b 98 aa 3d bb 97 b3 3e
       -0.34534982 0.42150733 0.08329793 0.350767
000070 a9 40 69 bd 33 92 86 be b7 b3 84 be 07 19 8e bb
       -0.05694643 -0.26283416 -0.25918362 -0.0043364796
000080 32 fe c6 3e 00 73 3a 3e ef f3 7b be b6 6f 02 3e
       0.3886581 0.18207932 -0.24604772 0.12737927
000090 a8 37 35 3e 9b f5 6e be 2e 1a cf 3e 37 74 c0 3e
       0.17697012 -0.23335879 0.4044966 0.37588665
0000a0 af d2 12 be 36 9a ac 3d f3 9c 0a 3e 6d 4a 12 3f
       -0.14338182 0.08427851 0.13536434 0.57144815
0000b0 36 06 aa be 49 03 d0 be d8 8d 35 bf 3f 77 8d 3e
       -0.33207864 -0.40627506 -0.7091956 0.2763004
0000c0 2d 7d b4 be 37 94 af 3e 31 18 87 3e 6b 73 10 3e
       -0.35251752 0.34292766 0.26385644 0.14106528
0000d0 28 1b 8d 3e ae 73 45 be 3c e8 8d 3e 55 4f 08 be
       0.2755978 -0.1928241 0.27716243 -0.13311513
0000e0 ea eb 0f 3f 19 e3 1f be 47 2a a2 3e 12 84 bb 3d
       0.5621935 -0.15613975 0.3167288 0.0915605
0000f0 db 55 ff 3d e6 23 7d 3e b6 48 f5 be ec aa d1 be
       0.124675475 0.24720725 -0.47907037 -0.40950716
000100 bc 14 b1 3e 11 22 c0 be 3c b5 df be c0 c7 e2 be
       0.34586132 -0.3752599 -0.43692958 -0.44293022
000110 a6 66 81 be 42 4d 6d 3e ee ee 0e bf 69 ba e1 3e
       -0.25273627 0.23174003 -0.5583333 0.44087532
000120 1c a0 fe 3e c1 99 bd be 09 7d e9 3d 75 d5 38 bc
       0.4973153 -0.37031367 0.11400802 -0.011281361
000130 1a c0 b3 3e 4f 35 6c be 0d e6 bc be 53 35 99 3e
       0.351075 -0.2306721 -0.36894265 0.29923496
000140 53 c8 83 3e dd 95 0f bf ae 42 09 be 53 63 5c be
       0.25738773 -0.5608805 -0.13404343 -0.21522264
000150 df 93 26 bf 0c 8a fc 3c 36 9e 0c be 54 95 37 bf
       -0.65069383 0.030827545 -0.13732228 -0.7171223
000160 21 62 0f 3d 84 9e 1c be d6 09 d7 3e 81 f4 24 bd
       0.035005692 -0.15294844 0.41999692 -0.04027224
000170 36 b5 78 be 3e 80 92 be 06 a9 0f 3e a5 3c bd 3e
       -0.24287876 -0.28613466 0.14029321 0.3696033
000180 cc e5 ec 3e d7 17 bf be 4a e7 a1 3e 7a ae 14 be
       0.4626907 -0.37322876 0.31621772 -0.14519683
000190 1c 38 96 3e 91 a2 87 be 7b 0f d2 3e ff 03 c0 be
       0.29339683 -0.26491216 0.41027436 -0.3750305
0001a0 7c c8 94 be f5 1a e9 be e1 e4 1c 3e e6 70 7f be
       -0.29059207 -0.4552838 0.15321685 -0.24945411
0001b0 0b e2 ac be e7 98 ae 3e 13 b5 80 be 45 21 9f be
       -0.33766207 0.3410103 -0.2513815 -0.3108007
0001c0 9e 24 ec 3e 69 77 b4 be 97 d7 ed be df 66 2c be
       0.46121687 -0.35247353 -0.46453544 -0.16836117
0001d0 4d 1c 74 be 50 2e d7 3e 44 9f 9e be a2 bd d5 bd
       -0.23838921 0.4202752 -0.30980885 -0.1043656
0001e0 e6 c0 f7 3e e0 f3 0e 3e 2a 32 98 be 8f 44 ac be
       0.48389357 0.13960218 -0.29725772 -0.33646056
0001f0 0a 99 32 3c 59 f7 20 be af 2b 9d 3e 6b e8 12 3e
       0.010900745 -0.15719356 0.3069739 0.14346473
000200 2d b7 72 bf 60 08 21 bf 43 cb 65 3e 41 17 77 be
       -0.94810754 -0.62903404 0.2244082 -0.24129964
000210 b1 4b 02 bf 4a 9a 83 3e 22 db 56 bd 68 e3 85 be
       -0.50896746 0.2570365 -0.052455075 -0.2615006
000220 27 61 b5 3e f4 52 c4 be e9 55 a3 3e d3 80 f7 3c
       0.35425684 -0.38344538 0.31901482 0.030212795
000230 b0 77 24 3e 04 57 68 3e d4 0e 8f 3e d0 71 87 3e
       0.16061282 0.22689444 0.27941 0.2645402
000240 10 b1 0b be 21 45 e2 3d 8b e5 af 3e 96 3f f9 be
       -0.13641763 0.110483415 0.34354815 -0.48681325
000250 a0 d3 92 be b3 bf 8b 3e ee 5f 4c bd 11 cd 13 3d
       -0.28677082 0.27294692 -0.049896173 0.03608424
000260 9f 50 8f bd a9 dd be be b2 05 ee be f9 f4 d0 3d
       -0.06997799 -0.37278488 -0.4648872 0.10202975
000270 b3 23 10 bf d1 25 a7 be ba 29 cb 3e 50 68 a1 be
       -0.5630447 -0.3264604 0.39680272 -0.31524897
000280 e9 ff a5 be 90 ef 52 3e f3 75 83 3e 7b 6c 37 be
       -0.32421806 0.20599198 0.25675926 -0.17912476
000290 b3 f6 86 3d a9 a5 f5 be d3 e0 04 be c0 bb 68 3d
       0.06590023 -0.4797795 -0.12976389 0.056819677
0002a0 b4 5a b8 be ce 81 11 3f bc c3 32 bf 64 6b 40 3e
       -0.360067 0.5683869 -0.69829917 0.18790966
0002b0 1d a5 00 3f 81 11 d3 bd 32 a0 e6 be f2 ed eb be
       0.5025194 -0.10306073 -0.45044094 -0.46079975
0002c0 d8 57 82 3e 1d 29 ca 3e 4d 8c b3 be 65 4a 7b 39
       0.25457644 0.39484492 -0.35067979 0.0002396494
0002d0 13 0f df 3d 27 3e c3 be 00 ba 57 bd b1 0a a3 3e
       0.10891547 -0.38133356 -0.052667618 0.31844094
0002e0 f0 56 d7 be 05 2a a7 bc 39 54 4d be b3 58 2a 3e
       -0.42058516 -0.020405779 -0.2005166 0.16635399
0002f0 0c 60 0c 3d ea 24 9f be f5 e0 b5 be 40 13 ee 3e
       0.034271285 -0.3108285 -0.3552319 0.46499062

inc.double_conv.3.bias f4 [8]
000000 51 db 8a bd 71 85 94 be 6c e8 20 be 74 ec 81 bd
       -0.067801125 -0.29008058 -0.15713662 -0.06343928
000010 62 0c 96 be 42 c2 45 3e ae af 45 3d b0 c8 36 3c
       -0.29306322 0.19312385 0.048263244 0.011156246

inc.double_conv.4.weight f4 [8]
000000 17 c7 8a 3f 5b 38 b8 3f bc 83 53 3f e7 6e 4d 3f
       1.0842007 1.4392198 0.82622886 0.8024735
000010 0c 87 66 3f 61 7c c4 3f d7 95 a8 3f da d8 5a 3e
       0.90049815 1.5350457 1.3170727 0.21371785

inc.double_conv.4.bias f4 [8]
000000 cc 0a 26 3f f8 54 a3 3e 42 e0 ab 3e 15 ef 99 3e
       0.64860225 0.31900764 0.33569533 0.30065218
000010 9e d9 57 be 6e 8c ef 3e bf 6b c6 3e fe b2 33 be
       -0.21079108 0.46786827 0.3875408 -0.17548749

inc.double_conv.4.running_mean f4 [8]
000000 1a 4c 83 bf cf ef 58 bd 31 12 64 bd 84 aa 09 bf
       -1.0257599 -0.052963074 -0.05568141 -0.5377581
000010 11 4c 9f bf 80 ce 4a 3e 16 db 52 bf c9 1c 82 bf
       -1.2445089 0.19805336 -0.8236555 -1.0165035

inc.double_conv.4.running_var f4 [8]
000000 ce 35 83 40 e9 e4 8f 40 9e 4b e7 3f 55 9e 10 40
       4.100318 4.496693 1.8069952 2.2596638
000010 63 ed 6f 40 be 35 49 40 d5 f4 95 3f 50 20 5a 40
       3.748864 3.1439052 1.1715342 3.4082222

down1.maxpool_conv.1.double_conv.0.weight f4 [16, 8, 3]
000000 49 96 74 be 40 0a c9 bd b1 f8 b5 be bc 5d 12 bf
       -0.23885454 -0.09816408 -0.355413 -0.5717428
000010 7e 3e 3c bc 5a 51 23 3f 15 36 2a 3e 9e 1b bb be
       -0.011489509 0.6379601 0.16622193 -0.36544508
000020 02 bb 4b be 3a 02 ae bd b5 65 5b bd 44 e2 3f be
       -0.19895557 -0.084965184 -0.053563792 -0.18738657
000030 c1 df 17 3f 35 d3 ba be 14 35 38 bf 32 af 14 3e
       0.59325796 -0.36489263 -0.7195599 0.14519957
000040 de 1f 5b bd 57 28 05 bf b3 7a b5 bd 01 8e ea bd
       -0.053497188 -0.5201468 -0.08861294 -0.11452866
000050 ef f8 5e 3e a7 92 bb be a3 9f 3e 3e 1f 74 44 be
       0.21774648 -0.36635324 0.18615584 -0.19184922
000060 73 38 87 3e cb 9b 61 be 80 c8 7f 3e 08 8e c0 be
       0.26410255 -0.22032087 0.24978828 -0.3760836
000070 85 26 8e be 58 3b 86 be 91 31 83 3d bc 77 81 be
       -0.27763763 -0.2621715 0.064059384 -0.25286663
000080 0c b9 cd be 3d d9 f5 3e 5e 7d 58 be 78 74 33 be
       -0.40180242 0.48017302 -0.21141574 -0.17524898
000090 d2 9c 94 3d 6f 94 82 3e 5b 7a dc be 9d 21 0e 3e
       0.072564736 0.2550387 -0.430621 0.1388001
0000a0 8c fc a8 3e 72 90 9f 3e af d5 17 3f 85 8b ec 3c
       0.33005178 0.3116489 0.5931043 0.028875122
0000b0 4a 94 14 3f 66 49 0f 3d 51 51 62 be 85 ab 68 3c
       0.5803877 0.034982108 -0.22101332 0.01420105
0000c0 14 85 10 3e 5f 53 67 be b2 0c 8d be e2 95 9c be
       0.14113265 -0.22590397 -0.27548748 -0.30583102
0000d0 57 dd 93 3e 7b 16 79 be 3f b4 73 3e 81 98 c5 be
       0.28879806 -0.24324982 0.23799227 -0.38592914
0000e0 f6 dd a6 be ff 0a 26 bd 02 2c ae 3e 6d 45 b7 be
       -0.32591218 -0.04053783 0.3401795 -0.35795155
0000f0 91 8d e2 be ae 5d 74 be cf 71 04 3e 8c 92 9c be
       -0.44248632 -0.23863861 0.1293404 -0.30580556
000100 d0 fe bb be 7e 40 05 3f 77 a3 af bd 6d 5a fa 3d
       -0.36717844 0.5205153 -0.085761 0.122242786
000110 f2 75 79 be 40 3d da 3e 13 f0 58 be 5c f4 dd be
       -0.24361399 0.42624855 -0.21185331 -0.43350494
000120 d5 93 be 3e 07 1b ca 3d 27 45 fe be 95 45 02 bf
       0.37222162 0.09868436 -0.49662134 -0.50887424
000130 e1 5e 5c be 3b 7f 11 3f 17 d8 ec be c3 05 16 3c
       -0.21520568 0.56834763 -0.46258613 0.009156647
000140 6a 43 44 3e 88 04 1d 3e ca ef f4 bd 24 bb ab be
       0.19166341 0.1533376 -0.11959799 -0.33541214
000150 0f 1f df bd 1a 6d a0 3e 6b 05 88 3e b9 9f 23 3f
       -0.10894596 0.31333238 0.26566634 0.6391559
000160 14 b4 b3 be 60 a9 b3 3e 96 c3 a2 3d de 26 43 be
       -0.35098326 0.3509016 0.07947461 -0.19057795
000170 cc d0 a7 bd 67 67 9e be 75 6a 95 be 7e 7c 5c bd
       -0.08194122 -0.30938265 -0.29182783 -0.053829663
000180 82 83 2b 3e db 19 c7 3e c0 10 39 39 03 17 7a bd
       0.16749385 0.38886914 0.00017649215 -0.061057102
000190 1f 56 8d 3e 6a 6e 72 3e 66 91 c5 3e f2 5c d2 be
       0.27604768 0.23674932 0.38587493 -0.41086537
0001a0 c9 03 78 bd f9 1e bd be 62 aa 51 be 47 48 dc 3d
       -0.060550485 -0.36937693 -0.20475152 0.10755973
0001b0 b1 68 fe 3e 7f 9c af be de 7e 24 be 51 8c cb 3e
       0.49689248 -0.34299085 -0.16064021 0.3975549
0001c0 56 b1 ca be 2f 3b ce 3e 96 68 74 bd 3d 61 6c 3e
       -0.39588422 0.40279528 -0.059670053 0.23083968
0001d0 0b 54 0f bf 6d 9d 1e be 23 c1 2b bf 85 c6 f6 3d
       -0.55987614 -0.1548974 -0.6709158 0.12049583
0001e0 92 4a 34 3e e7 01 0e bf 33 7e d0 3d b9 87 2d be
       0.17606571 -0.5547165 0.101803206 -0.16946305
0001f0 af ca b3 3e 3b e1 0f be 30 7b 2d 3f 9d ae 00 3e
       0.35115573 -0.14050762 0.67766094 0.1256661
000200 30 26 e7 be 30 a5 10 bf 00 4e 1c bd ba e4 46 3e
       -0.45146322 -0.56502056 -0.038160324 0.1942319
000210 5a 2e d3 be 93 1a c2 be 43 cb 93 3e 82 e2 2c bf
       -0.412463 -0.379109 0.28866014 -0.67533123
000220 cb 9c 27 be a8 8c cc 3e a9 37 ba be be 60 02 be
       -0.16368406 0.39951062 -0.3637059 -0.12732217
000230 5c d2 2d 3e 57 6b 9d 3e 36 7d eb bd af 86 8b be
       0.16974777 0.30745956 -0.114984915 -0.27251193
000240 69 28 a0 3e 8b 06 c5 3e bc 65 43 3e 11 19 fb 3e
       0.3128083 0.38481554 0.19081777 0.49042562
000250 65 8e 1a 3e b9 a2 c3 be 82 55 53 3e 93 89 29 be
       0.15093382 -0.38210085 0.20638087 -0.16556387
000260 9e c5 61 3e f3 a1 94 3e 2f fc 07 3f e5 c6 f6 bc
       0.22048041 0.29029807 0.53119177 -0.030124137
000270 c6 97 16 be 2a 6e 13 bf 28 10 4a 3e d5 b1 3a be
       -0.14706334 -0.5758997 0.19732726 -0.182319
000280 ce b6 b4 3e b5 35 22 bf 4a 5a 5e be d3 ad ec 3e
       0.3529572 -0.633632 -0.2171413 0.46226367
000290 b0 11 81 be fa 18 00 be de f6 41 3e 6f b2 8c 3c
       -0.25208807 -0.12509528 0.18941829 0.017174928
0002a0 89 3c 1e 3e fa 68 42 be 1f 00 56 3f 4b 00 25 bd
       0.1545278 -0.18985358 0.83593935 -0.040283483
0002b0 c4 5e ac be 33 d0 18 3e a6 99 6e 3e 19 02 4b 3d
       -0.3366605 0.14923172 0.233008 0.049562547
0002c0 52 ad a6 3d 3a 49 f1 3b 78 31 2e bf d2 36 af 3b
       0.08138527 0.0073634656 -0.68044233 0.0053471113
0002d0 8d 59 db be a3 e8 53 3e 6e 3c 18 3e ef 3f cd be
       -0.4284176 0.20694213 0.14866802 -0.4008784
0002e0 bf c9 fa 3c 5b 53 d8 be 13 46 8d 3d df 28 2a bf
       0.030613778 -0.42251095 0.06898131 -0.66468614
0002f0 3d e2 73 3e b2 83 d3 be 9f 32 99 be 21 aa eb 3d
       0.23816772 -0.41311413 -0.29921433 0.11507059
000300 ff 49 92 3e 7a 95 96 3e 35 dd b0 be b4 e1 df 3e
       0.2857208 0.29410917 -0.34543768 0.43726885
000310 aa 5b 0a be c8 ad 07 3e d8 84 e9 be f4 d4 db be
       -0.1351153 0.13249886 -0.45609164 -0.42935908
000320 c7 53 08 3f 5a 6b 0c 3f c4 e4 9f 3e 7e 6a 90 be
       0.53252834 0.54851305 0.31229222 -0.28206247
000330 96 1b 0b 3e 58 54 2f bf 13 f7 22 3f 23 3a 04 be
       0.13584742 -0.68488073 0.63658255 -0.12912802
000340 40 4e 89 3e c3 d1 97 be dd 4e a9 3b 0d ae 8d 3e
       0.26817513 -0.29652223 0.005166872 0.27671853
000350 a0 55 c5 be 0b e8 d5 3e 0a 76 68 3e ee 5d 4d 3e
       -0.3854189 0.41778597 0.22701278 0.20055363
000360 68 1c 40 be 6c 90 b4 be 31 1c 9e 3b 6c e7 26 be
       -0.18760836 -0.35266435 0.004825138 -0.16299218
000370 a4 79 bf 3e 54 9c 24 3d 14 eb f9 be 87 03 1e 3e
       0.37397492 0.04018815 -0.48812163 0.15431033
000380 07 08 08 3e e5 ea e8 be 38 75 10 be 43 bb db 3e
       0.13284312 -0.4549171 -0.14107215 0.42916307
000390 86 07 4e 3e 49 8a 95 3e ba b7 9e be e1 0d 9d 3e
       0.20120057 0.29207066 -0.30999547 0.3067465
0003a0 df e7 99 be 5b 48 94 3d 7f 09 7f 3e 90 37 81 3e
       -0.30059716 0.07240363 0.24905966 0.25237703
0003b0 1c 24 06 bf ec 83 a6 3e 73 11 22 be e8 d9 70 be
       -0.5239885 0.32522523 -0.15826969 -0.23520625
0003c0 5a eb f9 3c 35 2c cd bc 7d 2f f1 3e 68 2e 06 be
       0.030507732 -0.025045494 0.47106543 -0.1310364
0003d0 05 80 d7 be 2e 5a a1 3d bb 63 b1 3e 85 c1 c2 3d
       -0.4208986 0.078785285 0.346464 0.09509567
0003e0 0b b6 a8 3e b1 df 3d 3e fe 77 32 be df 02 75 be
       0.32951388 0.18542363 -0.17428586 -0.23926876
0003f0 38 f1 b9 3e 75 39 b2 3d 58 0b b2 3e 90 f4 23 3f
       0.36316848 0.08702365 0.3477428 0.6404505

down1.maxpool_conv.1.double_conv.0.bias f4 [16]
000000 d3 1c a9 bd 9c 34 e4 bc e5 64 05 3e 62 5d fc 3d
       -0.08257451 -0.027857117 0.1302677 0.12322499
000010 cf 30 81 3d 73 6a 12 3e 66 54 a1 bd a0 06 37 bc
       0.063081376 0.1429842 -0.07877426 -0.011171013
000020 17 69 17 bc 24 b6 d0 3d c5 c8 0d 3e 8a 59 f4 bd
       -0.009241364 0.101909906 0.13846119 -0.11931141
000030 57 16 43 3d 53 7b d2 bd 15 72 8f 3d 4f 9d b2 bd
       0.047628727 -0.102774285 0.07004181 -0.087214105

down1.maxpool_conv.1.double_conv.1.weight f4 [16]
000000 c7 b1 99 3f 5e c3 82 3f df bc 1d 3f 9e 63 2e 3f
       1.2007378 1.0215871 0.6161632 0.68120754
000010 d1 13 a4 3f ce cd 88 3f 9c ab 61 3f 3e 9c 99 3f
       1.2818547 1.0687807 0.8815248 1.2000806
000020 16 e3 87 3f c9 82 33 3f b3 b0 50 3f b6 28 3f 3f
       1.0616176 0.7012144 0.8151962 0.74671495
000030 3c 9e b9 3f af 26 86 3f 5d e4 51 3f c3 6e 57 3f
       1.4501414 1.0480555 0.8198908 0.84153384

down1.maxpool_conv.1.double_conv.1.bias f4 [16]
000000 da f1 c1 3e fa 4a b6 bd f2 18 ad be a2 6d a4 3e
       0.3787983 -0.089010194 -0.33808094 0.32114893
000010 c8 69 45 3c f2 59 08 bf 41 c1 ad bd d1 34 9e bd
       0.012049146 -0.53262246 -0.08484126 -0.07724918
000020 91 89 79 3e e6 51 75 be 0f f3 a2 3e 4c 1f 2c be
       0.24368884 -0.23957023 0.31826064 -0.16808814
000030 d5 79 06 3f c3 55 89 bd aa 8b ae be 14 bb ab be
       0.5252965 -0.06705811 -0.3409093 -0.33541167

down1.maxpool_conv.1.double_conv.1.running_mean f4 [16]
000000 a9 30 25 c0 f2 d3 9b 3f 13 f9 f7 bf db 8b a1 3e
       -2.581095 1.2174056 -1.9372886 0.31552014
000010 94 4c 90 3f cf 93 c0 bf 39 5f b9 3f 1e 31 8e bf
       1.127337 -1.5045108 1.4482185 -1.1108739
000020 df 61 4d 3f 42 f9 e8 be 9c 08 15 40 74 c7 85 3f
       0.80227464 -0.4550267 2.3286505 1.0451493
000030 cc d1 d5 bf 63 ba 89 bf 76 82 20 40 af 5a b5 bf
       -1.670465 -1.0760006 2.5079627 -1.41683

down1.maxpool_conv.1.double_conv.1.running_var f4 [16]
000000 b8 46 34 40 a3 10 db 3f 3d 22 f8 3f a5 ed e2 3f
       2.8168163 1.7114452 1.9385449 1.7728773
000010 2f 90 11 40 13 be 08 40 75 24 d4 3f ad 98 70 40
       2.2744253 2.1366012 1.6573626 3.7593186
000020 3d 31 e5 3f d0 0b af 3f ec b1 8b 3f 5b 98 34 40
       1.7905651 1.367548 1.0913672 2.821799
000030 9b 57 fe 3f bd 96 47 40 1d 8d 86 3f 30 36 09 40
       1.9870485 3.1185753 1.0511814 2.1439323

down1.maxpool_conv.1.double_conv.3.weight f4 [16, 16, 3]
000000 89 fe e7 3e f1 b7 2e be d4 62 ac 3e a5 6a 8a 3f
       0.45311382 -0.17062356 0.3366915 1.0813795
000010 06 32 61 be a5 44 3a 3e cc a2 7b be bc 5b 81 be
       -0.21991739 0.18190248 -0.24573821 -0.252653
000020 4b b8 df bd e9 d5 40 bd 89 4b a1 3e 0b 55 c5 3e
       -0.10923823 -0.047079 0.3150294 0.38541445
000030 51 4a 39 be 5b b9 d6 3e fb 3b 3b 3d b8 93 8a be
       -0.18094756 0.4193829 0.0457115 -0.27065825
000040 a4 12 82 3e 8d 94 b9 bd 9a 05 cb be 60 51 54 be
       0.25404847 -0.09061537 -0.3965271 -0.20734167
000050 b1 bf ae be 8a c4 af 3e ff 22 1c be d3 02 26 3c
       -0.34130624 0.34329635 -0.15247725 0.010132509
000060 b7 a6 67 be c6 47 b1 3d 11 5a 2a bd 26 76 4e 3e
       -0.2262219 0.08656268 -0.0415898 0.20162258
000070 5c 98 6e 3e 75 79 5e 3e ac a7 55 be 73 7e 9a be
       0.23300308 0.2172602 -0.20864743 -0.30174598
000080 a1 ca 32 be b6 40 30 be c3 8e e7 be 3b b7 1d 3f
       -0.1746011 -0.17212185 -0.45226106 0.6160771
000090 b6 c0 ae be e4 fe b1 3e b6 6d de 3d 79 e8 43 3f
       -0.34131402 0.3476478 0.108607695 0.765266
0000a0 e5 cd 88 be 78 87 5b 3e 73 e1 85 be cb da 67 3d
       -0.26719585 0.21438396 -0.26148567 0.05660514
0000b0 fe e0 58 3e f2 fb 1a 3d 7e dc b0 3e df 8e c8 3d
       0.21179578 0.03783793 0.34543222 0.097928755
0000c0 eb 73 a7 be 55 f9 2b be 5e 77 d4 3e 2f 41 05 3f
       -0.32705626 -0.16794331 0.4149732 0.5205259
0000d0 ff 58 db bd 33 ff 9b 3d 94 48 b6 3c 49 f8 1d 3c
       -0.10710334 0.07617035 0.022251405 0.009641715
0000e0 ef 18 a2 be a3 bd c0 3e c7 80 8e be b9 9c b9 bd
       -0.31659648 0.3764468 -0.27832624 -0.090630956
0000f0 fe 7f 9b be 58 f6 2f be 66 7b 8a 3e ff 76 06 3f
       -0.30371088 -0.17183816 0.2704727 0.52525324
000100 c2 eb 58 3e 0b c1 a2 be 72 5c 04 bc c6 ac c4 3e
       0.21183684 -0.31787905 -0.008078681 0.38413066
000110 29 c9 67 be 6a 0b 94 be 4f df a1 3e d8 75 43 3e
       -0.2263533 -0.28914958 0.31615683 0.19087923
000120 0d aa eb bd 65 61 88 be 5f 5c 76 3e f2 9a 71 3e
       -0.11507044 -0.26636806 0.24058674 0.23594263
000130 08 10 bf be 85 86 d6 be 7b c2 93 3e 84 97 e8 be
       -0.37316918 -0.41899505 0.28859314 -0.45428097
000140 ec 49 ec 3e 0c f6 bb be 8f d3 c4 3e 60 c7 db bd
       0.46150148 -0.36711156 0.38442656 -0.10731387
000150 8f b0 02 3f b8 eb 26 be dd 90 b3 be f3 08 30 3e
       0.5105066 -0.16300857 -0.3507146 0.17190914
000160 72 65 21 3f be 88 dc 3d 2d 43 08 3e b0 05 43 3d
       0.6304542 0.10768269 0.13306876 0.047612846
000170 3a c7 c8 be bf aa b4 be ef 6e 92 bd bf d5 ac 3e
       -0.39214498 -0.3528652 -0.07150065 0.33756825
000180 81 7e 5c 3e 9b 63 e7 3e af ff 57 be c6 88 34 be
       0.21532632 0.4519318 -0.2109363 -0.176303
000190 c3 88 c2 3e 1f 12 7b 3e 5f ee e3 3e 53 7d 35 3e
       0.37994966 0.24518631 0.445178 0.17723589
0001a0 cb 3c 39 be ca 42 8c 3e 91 3c c6 be 05 be 3b 3e
       -0.18089597 0.27394706 -0.38718084 0.18334205
0001b0 4f 22 8f 3e ee 52 e7 be 72 22 c0 3e 38 83 a9 3d
       0.27955863 -0.45180458 0.3752628 0.08276981
0001c0 f6 25 ad 3c e2 f9 f5 3e 07 70 95 3c 17 4e 87 be
       0.021136265 0.48042208 0.018241895 -0.26426765
0001d0 c2 8a e2 bd 6a d3 8f be 23 3b 66 3e d1 30 d7 be
       -0.11061622 -0.28090984 0.22483496 -0.4202943
0001e0 64 c9 89 3e d9 95 7a be f1 e0 88 3c e2 30 96 be
       0.2691146 -0.24471225 0.016708823 -0.2933417
0001f0 a9 58 2a be 4e 88 90 be 3e 04 d7 3e d5 e9 df be
       -0.16635384 -0.28228992 0.41995424 -0.43733087
000200 f8 30 05 3f ed 33 d5 be ee 0e fe bd a0 ce cf be
       0.52027845 -0.4164118 -0.12405191 -0.4058733
000210 e9 89 a5 3d ca eb a0 be f2 57 dc 3e 08 ba 16 bc
       0.08082945 -0.31429893 0.43035847 -0.009199627
000220 86 5b bd 3e ec 2c a7 be 16 1c ed be 2a 8a 05 be
       0.3698389 -0.3265146 -0.4631049 -0.13040987
000230 36 f6 c7 be 12 da 86 be 98 bc f0 be 7b 6d 85 3e
       -0.39055032 -0.2633825 -0.47018886 0.2606009
000240 97 fe 47 be 23 0f c7 3e 0a b0 f8 be 9d a6 b8 bd
       -0.19530712 0.38878736 -0.48571807 -0.09016154
000250 42 9a 86 be da 75 91 bd 04 7e 92 bd 79 93 12 3e
       -0.26289564 -0.071025565 -0.07152942 0.14314069
000260 ca 11 ea 3e 4c e1 aa be b4 d7 50 bd 86 9a 2c 3f
       0.45716697 -0.33375013 -0.05098696 0.67423284
000270 8b d2 a6 3e 00 81 0a 3e 40 ac 84 be 46 13 99 3d
       0.32582507 0.13525772 -0.25912666 0.07474379
000280 0f 3d 82 3e 65 6f 1e 3f fe 09 0a be 72 04 a4 be
       0.2543721 0.61888725 -0.13480374 -0.32034642
000290 4b 52 5d be 73 9d 81 be 15 8a 69 bd e9 98 e6 be
       -0.21613424 -0.25315437 -0.05701645 -0.45038536
0002a0 aa b0 a2 be 9e e0 09 3f 3b 35 fc be 6d e8 fd 3d
       -0.3177541 0.53858364 -0.49259362 0.12397847
0002b0 72 55 bf be 46 96 ad bd 54 2e db be 3a fe bc 3e
       -0.37369877 -0.08475928 -0.42808783 0.3691271
0002c0 70 5a e7 be b1 ac 91 3e 36 af ad 3e 42 67 05 3e
       -0.45186186 0.28452066 0.33922738 0.13027671
0002d0 09 85 f2 be 5d db 89 be 2f 31 32 3f 39 89 cd 3e
       -0.47367123 -0.26925173 0.696063 0.40143755
0002e0 99 d9 80 3e 40 9a 34 be 2e 3e 7b 3e 00 59 0d be
       0.25166014 -0.17636967 0.24535438 -0.13803482
0002f0 5f 43 87 be 62 89 aa 3e 73 08 3a be 31 c6 1a be
       -0.26418588 0.3330794 -0.18167286 -0.15114667
000300 02 89 10 3f b0 32 3e 3e 00 ff f3 be 56 0d 1c be
       0.5645906 0.18574023 -0.47655487 -0.15239462
000310 1b ee 88 be fa c3 26 3f 65 54 ba 3e b0 63 c7 3e
       -0.2674416 0.65142787 0.36392513 0.38943243
000320 9b a4 de be 29 a6 ac be 87 bf 50 be cc 84 b6 be
       -0.4348496 -0.3372052 -0.20385562 -0.3564819
000330 85 44 ed bd f0 e2 9d 3e a9 9e 08 3e a9 23 5e be
       -0.11585335 0.30837202 0.13341774 -0.21693291
000340 c7 29 0a be 26 1b cc be 8e 75 09 3d 94 5e 85 be
       -0.134925 -0.39864463 0.033559375 -0.2604872
000350 dc 8c dd be 17 44 e0 bd c5 33 16 be 95 06 a0 3e
       -0.4327153 -0.10950487 -0.14668186 0.31255022
000360 fa 83 f0 be e6 32 2f 3c f4 79 e0 be 40 37 80 be
       -0.4697569 0.0106932875 -0.43843043 -0.25042152
000370 fa 06 f3 3d 83 56 00 3e fa a6 43 be cf 50 d9 bd
       0.11866565 0.12533002 -0.19106665 -0.10611116
000380 0e 7c cc be 64 1b 38 be 94 f5 85 3e 54 37 f5 3e
       -0.39938396 -0.17979199 0.26163924 0.47893775
000390 19 b7 e2 be 6c 34 51 3c 76 ba 4d be ee 8d 7b 3e
       -0.44280317 0.012768846 -0.2009066 0.2456586
0003a0 5a 6d 8b be c8 88 37 3f 2d b7 da bd 13 73 47 be
       -0.27231866 0.71693087 -0.10679469 -0.19477491
0003b0 b8 86 88 be e4 a5 21 3e 61 3a 0f 3e 24 b2 36 3e
       -0.26665282 0.15785939 0.13987114 0.17841393
0003c0 8a a1 aa 3e c4 23 aa 3e ff a6 80 3e 45 19 a8 3e
       0.3332637 0.33230412 0.25127408 0.3283178
0003d0 25 73 19 be ca 22 b7 be 2e 75 16 be 32 b4 de 3e
       -0.1498533 -0.3576873 -0.14693138 0.43496853
0003e0 01 88 b9 3e 20 d7 78 be d5 37 5b be 66 fa 64 be
       0.36236575 -0.24300814 -0.21408017 -0.22361144
0003f0 88 43 c6 3e ac 0d 01 bf 17 49 bf be 51 7c f3 3d
       0.38723397 -0.50411487 -0.3736045 0.11888946

down1.maxpool_conv.1.double_conv.3.bias f4 [16]
000000 eb d3 23 3d 95 ca d3 3d 9e 7d bd 3d 55 4c 17 bd
       0.039997023 0.10341374 0.09252475 -0.03693803
000010 8c 15 3e bd a9 50 8b bd 95 48 f2 bd cb ae c9 bd
       -0.046407267 -0.06802494 -0.1183025 -0.09847792
000020 89 3d 92 3d 89 d9 79 3d 0d 41 85 bd d0 87 ae 3d
       0.07140643 0.060998473 -0.06506548 0.08521998
000030 d3 5d aa bd de 65 17 bc 78 f5 02 be 06 83 02 3d
       -0.08318677 -0.009240596 -0.12788951 0.031863235

down1.maxpool_conv.1.double_conv.4.weight f4 [16]
000000 38 e2 9f 3f 9c 4a 9d 3f 33 fe 36 3f c2 aa 2d 3f
       1.2490911 1.2288394 0.7148163 0.6783868
000010 04 9d da 3f 15 18 0a 3f ef d2 42 3f e8 6a 51 3f
       1.7079167 0.53942996 0.7610311 0.8180375
000020 9d 68 99 3f b1 ad b4 3f 9b fd f8 3e 2c 43 2e 3f
       1.198505 1.4115506 0.48630986 0.68071246
000030 f6 a8 cd 3f 98 ae 96 3f 57 35 a2 3f 94 a9 45 3f
       1.6067188 1.1772032 1.2672528 0.7721188

down1.maxpool_conv.1.double_conv.4.bias f4 [16]
000000 49 69 1b 3f 51 42 ab 3e 9b 33 ae bb 7b 35 89 bc
       0.6070753 0.33449033 -0.0053162104 -0.016749134
000010 05 08 0f 3f 5e eb da be 1f f5 9d 3d ca 64 a6 be
       0.5587161 -0.42757696 0.07712769 -0.3249877
000020 08 28 b6 3e 95 b5 d3 be 3e b0 b8 be 2c 65 bf be
       0.35577416 -0.41349474 -0.36071962 -0.37381876
000030 92 fb f5 3e fd 30 18 3e 50 55 8d 3d a6 28 d5 be
       0.48043495 0.14862438 0.06901038 -0.41632575

down1.maxpool_conv.1.double_conv.4.running_mean f4 [16]
000000 1d 2f 8f 3f 60 07 1a 3f 65 c0 d5 3e ad 1e 28 bf
       1.1186253 0.60167503 0.41748348 -0.6567181
000010 ad 89 a9 bf b3 f0 3a bf 8d d2 7e bf 5a 39 ae 3e
       -1.324514 -0.7302353 -0.99540025 0.3402813
000020 d3 a2 8d bf e8 f6 61 3f ae 3f 38 bf b4 68 b7 bf
       -1.1065315 0.88267374 -0.7197217 -1.4328828
000030 76 27 97 3f d1 9e 57 3e 40 a5 01 bf e6 be b7 3f
       1.1808918 0.21056677 -0.50642776 1.4355133

down1.maxpool_conv.1.double_conv.4.running_var f4 [16]
000000 91 51 a0 40 25 41 81 40 9d 51 c0 40 6e 12 7e 40
       5.009957 4.039202 6.0099626 3.9698749
000010 74 d5 93 40 05 2b bf 3f 7d 03 47 40 39 6e 27 40
       4.6198063 1.4935004 3.109588 2.6161025
000020 cb 82 26 40 6b c1 8d 40 24 ef 30 40 56 a9 28 40
       2.601733 4.4298606 2.764596 2.6353354
000030 05 df 51 40 f9 49 30 40 89 30 33 40 3d 8b 35 40
       3.279237 2.754515 2.7998374 2.8366234

down2.maxpool_conv.1.double_conv.0.weight f4 [32, 16, 3]
000000 e9 c0 fb bd e8 ae e1 bd f1 73 7c be 6c 6d 16 be
       -0.12292654 -0.11019689 -0.24653603 -0.14690179
000010 c6 fb ef 3e 7d db a8 3e 1a 1e 05 bc c1 3e 85 3c
       0.46871775 0.32979956 -0.008124853 0.016265275
000020 03 25 7b 3e 29 bf a3 3e 13 5e 5e 3e af a2 25 bc
       0.24525838 0.3198178 0.21715574 -0.010109588
000030 4c e1 8f be f7 5b a3 be 9c 11 93 be ec 30 65 be
       -0.28101575 -0.319061 -0.28724372 -0.22381943
000040 f5 1f 77 be c1 e0 6a bc 7a 35 f8 3e ff 20 80 be
       -0.24133284 -0.014335812 0.484783 -0.25025174
000050 84 85 97 3e e9 8b 0b 3f 0b ea d4 be cc be 1c be
       0.29594052 0.5451036 -0.4158481 -0.15307158
000060 d8 e2 09 3e 02 73 2e 3e 63 a9 94 3e 15 0c bc 3e
       0.1346544 0.1703606 0.29035482 0.36727968
000070 94 41 89 bc 31 ef 4e 3e 42 ea 14 3f 75 6a ff bc
       -0.016754903 0.20208432 0.5816995 -0.031178692
000080 fe 82 cb 3e 29 89 0e 3f 12 5a 93 be cc fe ff 3e
       0.39748377 0.5567804 -0.28779656 0.49999082
000090 57 5c d5 3e 07 08 0b bd 92 72 76 3d 62 6e b0 be
       0.41672012 -0.033943202 0.060167857 -0.34459215
0000a0 51 0c 72 be 64 b4 82 bd 83 3f 03 bd 1e 90 d6 be
       -0.23637511 -0.06382063 -0.03204299 -0.41906828
0000b0 ab af 0c 3f a8 fb 01 3d b2 30 98 3d 1e f3 d0 be
       0.5495555 0.03173414 0.07431163 -0.40810484
0000c0 8c fb 31 be 71 23 2d 3e 20 48 54 3e f7 89 a0 be
       -0.17381114 0.16908051 0.20730639 -0.3135526
0000d0 ac ed 2c be 6c 33 2b 3e 43 82 9c be e2 72 bd be
       -0.1688754 0.16718835 -0.30568132 -0.3700171
0000e0 d6 3a 9a be 70 e3 26 be c9 b9 cd 3d b9 76 06 bf
       -0.30123013 -0.16297698 0.10045201 -0.52524906
0000f0 59 7f f2 3e 81 b7 3a 3e 75 3b 1d 3e be 9d 13 be
       0.47362784 0.18234064 0.15354712 -0.14415643
000100 0d 6f 12 3e 31 58 ac be 8d 8e 9b be 04 52 df be
       0.14300175 -0.33661035 -0.30382195 -0.4361726
000110 18 e0 93 be 46 8e f7 be 96 3d f9 be df f1 81 3d
       -0.28881907 -0.48350734 -0.486798 0.063449614
000120 cc d1 bd bc 38 69 bc be 6a 3c 71 bd c9 1c 83 bc
       -0.023171328 -0.36799026 -0.058895506 -0.016004937
000130 da 5a 62 be 50 22 f2 3e fd db b8 be c8 e1 a2 3e
       -0.2210497 0.47291803 -0.36105338 0.31812882
000140 1a 72 d3 be 56 83 70 be fe 46 b6 3e 2f a3 94 be
       -0.4129799 -0.234876 0.35601038 -0.2903075
000150 50 fc 53 bd 6c a8 4f be fc 01 16 3f a9 93 94 3e
       -0.051754296 -0.20279092 0.5859678 0.29018906
000160 c8 6f 90 3e 06 55 d9 3e ca 1f 71 3c 4a f3 c3 3e
       0.28210282 0.4244768 0.014717052 0.38271552
000170 39 6a e0 3e 65 0f 44 be 3f e2 98 3e 79 64 49 bd
       0.4383104 -0.19146498 0.29860112 -0.049168084
000180 0c 2d dd be 89 53 de 3e 62 a6 ea bd db ed 96 be
       -0.4319843 0.43423107 -0.11457516 -0.29478344
000190 46 c1 0b 3e a9 a7 9b be da 93 6d bd 25 50 08 3d
       0.13647947 -0.30401352 -0.05800233 0.033279557
0001a0 c2 6a da 3d 48 31 b4 3e a2 a4 55 be 3d 79 46 be
       0.10664894 0.3519385 -0.20863584 -0.19382186
0001b0 a4 ba 92 be d5 3b d4 3e c2 30 bb 3c ee d8 8d 3e
       -0.2865802 0.41451898 0.022850398 0.27704567
0001c0 7f cb c2 be 98 39 fa 3e e8 fd 97 bd 59 3d 01 bf
       -0.3804588 0.48872066 -0.07421476 -0.50484234
0001d0 89 2a bb 3e 67 8d 70 3e b9 11 0e 3f cc 96 0e be
       0.3655589 0.2349144 0.5549579 -0.13924712
0001e0 f6 68 45 3e 75 c0 1d be c9 f7 cf be 3e 68 8e 3e
       0.1927832 -0.15405448 -0.40618733 0.27813905
0001f0 3d 5f e8 be b8 b5 e4 be 52 df 10 3e 7b 06 9d 3d
       -0.4538516 -0.4466989 0.1414769 0.07667252
000200 eb 29 04 bf 4e 95 cd be 8c 1f 8c be fb 3f a6 3e
       -0.5162646 -0.40152973 -0.27367818 0.32470688
000210 0c 75 2a bf 08 f2 05 bf 59 e7 3a 3e 92 94 9e bd
       -0.6658485 -0.52322435 0.18252315 -0.07743181
000220 7b 04 fc 3d c8 bd c1 bc 48 bb 91 be 96 c1 86 3e
       0.12305542 -0.023650065 -0.28463197 0.2631957
000230 af 3c 7b 3e bd a9 78 be 07 34 36 3e 85 31 2c 3d
       0.24534868 -0.242835 0.17793284 0.042039413
000240 17 8b 60 be 2d d1 76 3d ad ec d2 3d 3e c7 d1 bd
       -0.21928059 0.06025808 0.102990486 -0.102430806
000250 69 c6 06 bf 4c c3 0a bf 9d f0 88 be 5e 22 d2 be
       -0.526465 -0.5420425 -0.26746073 -0.41041845
000260 61 24 85 be 81 52 6a 3e 8b c5 bf be 26 2f 85 3e
       -0.26004317 0.22883035 -0.374554 0.26012534
000270 c7 8e 24 be a1 61 f0 bd a5 d4 71 bc 6b df 46 be
       -0.1607009 -0.11737371 -0.014760171 -0.19421165
000280 33 ec af be 29 ac cb 3e 1e a4 3e 3e e8 64 89 be
       -0.34359893 0.39779785 0.18617293 -0.26834798
000290 ed d9 8d 3c 02 8d d1 3d 9d 45 18 3e a1 0f a5 3e
       0.01731583 0.10231973 0.14870305 0.32238486
0002a0 4f c9 ec be e7 db ea be dc 47 01 3f 39 02 1b 3f
       -0.46247336 -0.45870897 0.50500274 0.60550267
0002b0 72 02 2f 3c 56 ff 98 3e ea 92 8b 3e 82 f6 29 be
       0.010681735 0.29882306 0.27260524 -0.16597942
0002c0 59 31 02 3e 4c 95 d0 3d b3 23 c6 be b6 77 d7 3e
       0.12714137 0.10184726 -0.3869911 0.4208352
0002d0 7e 99 16 3f cb a2 1d 3f 95 99 63 3d 0d 66 7d 3e
       0.5882796 0.6157653 0.05556639 0.2474596
0002e0 dd 27 48 be ca 63 82 3c c9 ad b4 be c8 10 87 3e
       -0.19546457 0.015916724 -0.35288838 0.2637999
0002f0 4d 67 00 be 81 c8 f2 bd dc 81 1d bf 9b e7 10 bc
       -0.12539406 -0.11854649 -0.61526275 -0.008844282
000300 dc f3 80 3e 84 6f a2 be 72 2a 9d be 86 f5 d5 3e
       0.2518605 -0.31725705 -0.30696446 0.41788882
000310 fb 2a 26 3e 56 31 35 3f e3 9d f5 bd b7 63 3d be
       0.16227333 0.70778406 -0.11993005 -0.1849507
000320 68 65 96 be b6 23 63 be 7f 48 cf 3e 59 f7 9b 3e
       -0.29374242 -0.22181591 0.40484998 0.3046215
000330 fd 21 91 3e d2 83 ea be 79 de a6 bb 29 87 cc 3e
       0.28346244 -0.45803696 -0.005092439 0.3994687
000340 40 6a 56 3e 44 8f bc 3e f4 b1 9d 3e f5 58 0c 3e
       0.20938969 0.36828053 0.3079983 0.1370581
000350 0c 74 b4 3e 10 26 27 3e e9 a2 44 3e 68 79 ba 3e
       0.35244787 0.16323113 0.1920277 0.3642075
000360 e1 a4 05 3d 90 2d f1 be 8d 43 61 3e 9e a2 4a 3e
       0.032627944 -0.47105074 0.21998425 0.19788596
000370 e4 47 34 bd 28 74 b7 3e eb d5 b5 3d 54 62 0e 3f
       -0.044013873 0.35830808 0.08878692 0.55618787
000380 73 09 e7 be 9b 35 18 bf 00 11 b6 3e 46 2c 19 3f
       -0.45124397 -0.59456795 0.35559845 0.5983318
000390 9c 62 a7 3e 42 3d dd 3e d8 b1 15 3f b9 0a c8 be
       0.3269242 0.43210799 0.58474493 -0.3907068
0003a0 cd 1e 48 be 8f a3 63 be 6c 41 41 be cb 4f 89 3e
       -0.19543 -0.22230361 -0.18872613 0.2681869
0003b0 0b 1e f9 3c 47 e2 42 3e c4 8d af 3e b6 ff 8b be
       0.030409833 0.1903163 0.34287846 -0.2734353
0003c0 1d e1 c2 be db 93 bb bd a0 00 ec 3d 05 ed 91 be
       -0.38062373 -0.091590606 0.11523557 -0.28501144
0003d0 4c b3 24 3e 5f 31 83 be a0 86 e2 3e 0a b4 c7 bd
       0.16084021 -0.25623605 0.44243336 -0.097511366
0003e0 0a cd ba 3e 72 55 94 be 1f 7e 6e 3e 21 99 6e 3e
       0.36484557 -0.2897144 0.23290299 0.23300602
0003f0 c3 27 00 bf 44 36 af be e3 48 f8 3e 36 73 a2 be
       -0.5006067 -0.3422109 0.48493108 -0.31728524

down2.maxpool_conv.1.double_conv.0.bias f4 [32]
000000 d6 87 9e 3d ed f5 1e bd f7 b5 59 bd a9 89 b3 3d
       0.077407524 -0.03880875 -0.05315205 0.08766491
000010 79 20 96 bd 7a 08 f1 3d 11 22 d7 3d 90 64 b7 3d
       -0.073304124 0.11769195 0.105045445 0.08954728
000020 6a 4a 0b 3e c1 73 ae 3d 9a 9b b8 bd 78 d0 45 bd
       0.13602605 0.08518172 -0.09014054 -0.048294514
000030 9c ed 91 3d 90 a0 e0 bd 83 bb 0f 3e 18 d0 f1 bd
       0.071253985 -0.10968125 0.14036374 -0.11807269
000040 9f ff 83 bd 82 77 07 3c 9a c3 03 be 22 01 b5 bd
       -0.0644524 0.008268239 -0.12867585 -0.08838107
000050 74 38 02 be c1 ac 3a 3d df 30 f3 bd 9c c3 b2 3d
       -0.12716848 0.045574907 -0.11874556 0.08728716
000060 02 0b fa bd 52 56 0d 3d 22 3c c3 bc e6 11 bd bd
       -0.12209131 0.03450615 -0.023832384 -0.092319295
000070 ec 85 c5 bd c1 33 1f 3d 38 09 47 3d 2d 92 3d 3d
       -0.09644684 0.038867716 0.048592776 0.046281982

down2.maxpool_conv.1.double_conv.1.weight f4 [32]
000000 6e 89 b5 3f 9e 9a 0a 3f 8b ca e6 3e 42 5d 79 3f
       1.4182565 0.5414218 0.45076403 0.97407925
000010 05 77 70 3f e4 e3 e0 3e 31 bc 11 3f 10 0e 93 3f
       0.9393161 0.43923867 0.5692778 1.1488667
000020 2a be aa 3f 02 4e b6 3f b6 56 d2 3f c3 46 ab 3f
       1.3339283 1.4242556 1.6432712 1.338097
000030 83 3b 84 3f e8 55 69 3f ee d3 a2 3f 27 5d 18 3f
       1.0330662 0.9114671 1.2720926 0.5951714
000040 c3 a8 15 3f bd e4 2a 3f 98 2a 3f 3f e2 7f 96 3f
       0.58460635 0.66755277 0.7467437 1.1757777
000050 33 01 6b 3f b8 d8 a4 3f 8f ac 9a 3f 70 f4 3f 3f
       0.91798705 1.2878637 1.2083911 0.7498236
000060 83 3d ac 3f 1b ba 18 3f ea ee 90 3f bd b3 2a 3f
       1.3456272 0.59658974 1.1322911 0.6668051
000070 6d 42 b1 3f 95 7a 8a 3f a7 89 4a 3f ce fb d6 3f
       1.3848397 1.0818659 0.7911629 1.6795595

down2.maxpool_conv.1.double_conv.1.bias f4 [32]
000000 c6 b2 97 3d b8 07 c0 be 89 c1 75 be 8f 32 c2 3e
       0.07407145 -0.3750589 -0.23999609 0.37929198
000010 26 1c 13 bf 11 7f 11 bf 46 ca 9c be 2d ec 2a 3e
       -0.57464826 -0.5683451 -0.30623072 0.16691656
000020 99 3d ca be 86 bb 72 3e 74 fb c9 3e 51 ce b0 3d
       -0.3950012 0.23704347 0.39449656 0.08633102
000030 72 15 fb 3d 20 5b a9 be 46 48 31 be b3 91 a6 be
       0.1225995 -0.33077335 -0.17312726 -0.32533035
000040 8e 63 b6 bd 01 f2 15 bc 7a c4 97 be da 8b ad 3d
       -0.08905707 -0.0091519365 -0.29642087 0.0847394
000050 41 ca 8c 3d 61 85 0d bd c1 d9 bb 3d ca 76 00 3c
       0.06874514 -0.03455103 0.09172393 0.0078408215
000060 9a b2 32 3d b5 2f 5d 3e b0 1b 12 bf 7a 6f 32 3d
       0.04362736 0.2160023 -0.570735 0.043563344
000070 36 30 af 3e 6e 58 0f be f6 48 3c be 41 33 01 3f
       0.3421647 -0.13998577 -0.18387207 0.5046883

down2.maxpool_conv.1.double_conv.1.running_mean f4 [32]
000000 e2 65 29 3f 2d ed bc 3f 0b 7e 25 c0 58 f8 cb be
       0.66171086 1.475988 -2.585818 -0.3983791
000010 33 fc 48 40 6b 4f 37 c0 97 7b 28 be af 3d 97 40
       3.140393 -2.8642223 -0.16453396 4.7262797
000020 a6 32 0a 41 7e e9 a3 c0 2e 2d a6 3f 4a 95 d5 40
       8.637365 -5.1222525 1.2982538 6.674474
000030 52 54 85 bf a8 ab 39 40 59 66 34 40 94 63 8b 40
       -1.0416358 2.901102 2.8187468 4.3559055
000040 92 9a c2 c0 52 88 c1 c0 ed a8 5a be 69 ad 2c bf
       -6.0813684 -6.0478907 -0.21353503 -0.674521
000050 71 a9 61 c0 eb a5 c0 40 bc c7 62 40 2f 7e 25 bf
       -3.525967 6.0202537 3.5434408 -0.64645666
000060 59 57 a3 40 34 32 8e c0 39 b2 04 c0 7f 92 9e bf
       5.1044126 -4.4436283 -2.0733778 -1.2388457
000070 fa 56 30 40 47 92 0f 3f cd e7 54 40 ef b6 9e 3f
       2.7553086 0.56082577 3.326648 1.2399577

down2.maxpool_conv.1.double_conv.1.running_var f4 [32]
000000 60 9b 0f 40 6f 85 96 40 04 4c 48 40 d0 43 96 40
       2.2438583 4.7037883 3.1296396 4.695778
000010 db 79 4c 40 2b e8 8c 40 2a c9 9b 40 70 27 bb 40
       3.1949375 4.403341 4.868306 5.848564
000020 eb 3f fd 40 87 76 97 40 dc a1 b0 40 c1 b0 0e 41
       7.9140525 4.7332187 5.519758 8.918153
000030 2d aa ab 40 3e 3f d6 40 a6 96 a8 40 3e 21 b1 40
       5.3645234 6.69522 5.2683897 5.535308
000040 32 35 a4 40 a7 91 91 40 c1 c9 87 40 00 53 5e 40
       5.1314936 4.54903 4.243378 3.473816
000050 e9 cc 8b 40 9d b1 c3 40 13 33 e3 40 49 f9 78 40
       4.3687634 6.1154313 7.0999846 3.8902152
000060 7d 37 12 41 6a 0e b6 40 84 75 90 40 a3 29 94 40
       9.138547 5.6892595 4.514345 4.6300826
000070 a2 79 a0 40 d2 98 7a 40 a8 73 ba 40 73 d9 97 40
       5.0148478 3.9155774 5.826618 4.745294

down2.maxpool_conv.1.double_conv.3.weight f4 [32, 32, 3]
000000 2c bd bb 3e 80 0b 0d 3f f3 1d 24 be ab 7e c0 be
       0.36667764 0.5509567 -0.1602705 -0.3759664
000010 ab 57 6c be 49 0e 8b 3e b7 b0 38 3d 5c 67 d3 3e
       -0.23080318 0.27159336 0.045090403 0.41289794
000020 01 70 1e 3e d8 03 89 be 38 d1 97 3e b8 9e f7 3e
       0.15472414 -0.26760745 0.2965181 0.4836328
000030 d1 ae 72 3e d3 9a 83 be 27 a4 21 3f 2c b1 47 3d
       0.236995 -0.2570406 0.631411 0.04875295
000040 8c d2 90 bd d2 d9 43 3e 9e 9c d7 bc c2 e0 9d 3e
       -0.07071409 0.1912606 -0.026319798 0.3083554
000050 ee a3 92 be 2b da 11 bf 47 ac bc be 5c 95 67 be
       -0.28640693 -0.5697352 -0.36850187 -0.2261557
000060 f2 af bb 3e f4 17 ac be 38 fd 89 3e 30 04 0d bf
       0.36657673 -0.33612025 0.26951003 -0.55084515
000070 3e 6b 26 be e1 77 47 be bf 05 ec be ac 6d 61 be
       -0.16251847 -0.19479324 -0.46098134 -0.22014493
000080 c7 ce b7 3e 33 ff 31 3e 2a 1f 47 be 8c 05 c8 3d
       0.35899946 0.17382507 -0.19445482 0.09766683
000090 ae df b5 3e e2 52 12 3f 89 79 c4 be f6 2a 47 be
       0.35522217 0.5715772 -0.38373974 -0.19449982
0000a0 6f bb b8 be b9 e5 d9 be 5f 13 a6 3e 2c d8 ef 3e
       -0.360805 -0.42558077 0.32436654 0.46844614
0000b0 43 3a a7 bd bd d3 e3 bd 6e 43 20 3e ee 32 63 3e
       -0.081654094 -0.1112437 0.15650722 0.22187397
0000c0 e3 af 03 3d 5d 8a df 3d 63 40 23 3e cd 88 48 3e
       0.03215016 0.109150626 0.1594253 0.19583435
0000d0 87 55 27 3e 2b b2 d8 be 44 84 e6 3e 65 44 5b 3e
       0.1634122 -0.4232343 0.45022786 0.21412809
0000e0 80 94 89 3e f2 96 f5 3c 4a 80 ea 3e 32 7d 74 be
       0.2687111 0.029979203 0.45801002 -0.23875883
0000f0 31 5d c5 3d 99 5e a5 be 6d ae 0d 3f c2 57 0b 3f
       0.096369155 -0.32298735 0.5534428 0.5443078
000100 3b 97 3c be 3a 86 f7 3d da 88 7e 3e f0 f3 a9 be
       -0.18417065 0.120861486 0.24856892 -0.33193922
000110 88 6a 83 bd 22 dc d5 3e 37 da b4 3e 37 65 59 bc
       -0.064168036 0.4176951 0.35322735 -0.01326876
000120 3e 0f 55 3c b5 d4 72 3d b6 c2 58 be c5 dc 8f be
       0.013004122 0.059284884 -0.21168026 -0.2809812
000130 7d a6 30 be 05 7c c7 be 5d 84 ff 3e 06 eb 0f 3f
       -0.1725101 -0.38961807 0.49905673 0.5621799
000140 68 d9 52 bd 7e b7 54 be fd 79 5c be 4b 25 7f 3e
       -0.051476866 -0.20773122 -0.2153091 0.2491657
000150 d9 eb b5 be a8 b1 d8 3e 38 00 02 3f b2 a9 13 3d
       -0.355315 0.4232304 0.50781584 0.036050506
000160 fa 8c 6e be 72 00 ba be 81 4f 57 be 53 dc b6 3e
       -0.23295966 -0.36328465 -0.21026422 0.3571497
000170 be ea 5a 3e 8e ce 15 3f 5f dc 8d 3e 6f 77 e5 be
       0.2137861 0.585183 0.27707192 -0.44817683
000180 a2 76 05 3f 84 78 d6 3d aa 7a 37 be 82 d9 be 3e
       0.52134144 0.10472205 -0.17917886 0.3727532
000190 60 0b c1 3e e9 14 33 be e9 6f af be 72 67 8a 3e
       0.3770399 -0.17488445 -0.34265068 0.27032048
0001a0 cf 0a aa 3c 17 f7 83 be 3b 2b 6a 3e 21 bf aa 3c
       0.020757107 -0.25774452 0.22868054 0.02084309
0001b0 38 79 bc 3e d6 65 b3 3c 52 02 0c 3f 6f d1 93 be
       0.36811233 0.021899145 0.5469104 -0.28870723
0001c0 44 85 0b be 83 c9 89 3e f0 da c1 be 1f b3 cf bc
       -0.13625056 0.26911554 -0.3786235 -0.025353966
0001d0 d1 ed cf 3e 91 b7 b2 3d 2e 49 90 3e 48 25 fb 3d
       0.40611127 0.08726419 0.28180832 0.1226297
0001e0 4b cf 31 3f dd 4f b5 3e da a3 3f 3e ff e9 04 bf
       0.6945693 0.35412493 0.18714848 -0.5191955
0001f0 9c 48 ff bd 8e 36 97 be 09 d1 78 3e 39 d3 ea 3e
       -0.12465021 -0.2953381 0.2429849 0.45864275
000200 b7 35 d8 3e 1f b9 11 3f ff fe f0 3e 32 91 92 3d
       0.4222848 0.569231 0.47069547 0.071566
000210 b1 1a 28 be c2 fd c3 3c bb 2a 8d be 58 e5 c6 3e
       -0.16416432 0.023924712 -0.27571663 0.3884685
000220 14 e0 8c 3e ef 50 75 be 99 cc ca 3e dc 98 17 3f
       0.27514708 -0.23956655 0.3960922 0.5921762
000230 8f 08 4c bd 4b 84 63 3e dd ce b0 3e 5c 50 04 3f
       -0.04981285 0.22218435 0.34532824 0.5168512
000240 a8 35 cc 3e 4b d0 99 3e 4e b4 a8 3e 6b 70 99 3e
       0.39884686 0.30041727 0.32950062 0.2996858
000250 77 47 da 3d 43 2b 26 3e df c1 36 3e e1 94 2c be
       0.10658162 0.1622744 0.17847393 -0.16853668
000260 ba c2 9e 3d e9 2e 43 3e 8a eb 55 3e 14 ba 36 3e
       0.07751985 0.19060864 0.20890632 0.1784442
000270 07 5c 1a be 8f 40 ba bd d5 53 9a be 2e ff 1e 3f
       -0.15074168 -0.09094345 -0.30142084 0.62108123
000280 59 ba 29 3e 83 9f ac 3e 6a eb cd 3e d4 02 ff 3e
       0.16574992 0.33715448 0.4021867 0.49806845
000290 10 8f 98 bd 09 18 ad be 6b 2e b1 be ae 8e 13 3f
       -0.07449162 -0.338074 -0.34605727 0.57639587
0002a0 1e 6b 2a 3e 86 22 6b bd f9 91 05 3f ce ea 17 bd
       0.16642424 -0.05740597 0.5217586 -0.03708916
0002b0 e2 e2 b3 be 28 2a 83 be 42 f5 31 3e d6 e4 fa bd
       -0.35134035 -0.256181 0.17378715 -0.12250678
0002c0 89 00 a4 be 7f 5c 4f be 0b 81 c2 3d ee 40 40 be
       -0.32031658 -0.20250128 0.09497269 -0.18774769
0002d0 11 24 ca 3e b6 5e 22 3f 23 40 a0 3e f1 39 dc 3d
       0.3948064 0.6342577 0.31298932 0.10753239
0002e0 e4 b9 c2 3d 2d c2 fa 3d ba f3 72 bd ae 0a cc 3e
       0.09508112 0.12244067 -0.059314467 0.39851898
0002f0 7a c0 d7 3e 74 98 d0 3e d4 03 97 bd e4 91 8c 3e
       0.42139035 0.40741313 -0.07373777 0.27455056
000300 3a a4 9c 3e 83 5b 02 be a4 75 2d 3d ff e8 2b be
       0.30594045 -0.12730221 0.04234852 -0.167881
000310 35 be b8 3e fd ab 3b 3e 2e fc 5f bc ca c0 ab 3b
       0.36082616 0.18327327 -0.013670964 0.005241488
000320 e0 08 a1 be e3 2f d4 3a fe 9a 05 bf de 04 9c be
       -0.31452084 0.0016188588 -0.52189624 -0.30472463
000330 9e 78 bb be 06 5f d6 3b 57 5d d5 be ef 16 ef 3c
       -0.3661546 0.0065420894 -0.41672775 0.02918574
000340 77 39 87 be 3f f5 4f be e8 f4 73 be 0e d3 c7 be
       -0.2641103 -0.20308398 -0.23823893 -0.3902821
000350 04 ee bc 3e f8 25 87 be ed 0b a5 3e 97 a7 c9 3e
       0.36900342 -0.26396155 0.3223566 0.39385673
000360 41 88 44 be f5 7d cd 3e d4 08 ec be be fe 89 be
       -0.19192602 0.4013516 -0.46100485 -0.26952165
000370 a9 20 a2 be 9a 1a 86 3e 1f b4 f9 3e 4b 62 b6 3e
       -0.31665543 0.2619217 0.48770234 0.35621867
000380 ac 10 c6 3e d6 6e b4 be 1e 1b a4 3d 6e 6a 1f be
       0.38684595 -0.3524081 0.08012985 -0.15567943
000390 02 14 f8 be bd 39 85 bd cb aa 86 be be c7 94 be
       -0.48452765 -0.06505153 -0.2630218 -0.2905864
0003a0 4d 4f a5 3e 4e 44 4e be 2e 11 da bd b0 55 f1 be
       0.32287064 -0.20143244 -0.10647808 -0.47135687
0003b0 8c df b5 3e b4 59 80 3e 8b a3 2b be 86 f8 ab be
       0.35522115 0.25068438 -0.16761605 -0.33588046
0003c0 30 c0 98 be 78 0e 76 be c3 41 9d 3e fe 3b b9 be
       -0.29834127 -0.24028957 0.30714235 -0.36178583
0003d0 e8 75 4c be cd b7 f2 3d f3 25 c8 3e d0 95 8a 3e
       -0.19966853 0.118514635 0.39091453 0.27067423
0003e0 43 d3 47 be b8 17 ee be ac 11 92 be 6a 86 12 3e
       -0.19514184 -0.4650247 -0.28529108 0.14309087
0003f0 61 ae 06 be d0 8b 70 be 8c 41 64 be 9a 07 9e 3e
       -0.13152458 -0.23490834 -0.22290629 0.30865175

down2.maxpool_conv.1.double_conv.3.bias f4 [32]
000000 18 72 ae 3d 9a 2e 03 bc ea 0a b2 bc 71 4c 34 bb
       0.085178554 -0.008006716 -0.02173372 -0.0027511383
000010 bd 0c 9b bd 05 eb 9d 3d 68 c9 48 bd 27 85 35 bd
       -0.07570789 0.07710842 -0.0490202 -0.044316437
000020 d7 9f 14 bc df 3b 80 3d 7e e9 99 3d 11 d4 b1 bb
       -0.009071312 0.062614195 0.07515238 -0.0054268916
000030 76 41 0c 3d e1 9c df 3c d6 f1 85 3d 2f 6c 9c 3d
       0.034242116 0.027296485 0.06540267 0.07637822
000040 7e 94 2f 3d 4b 38 34 3d 6d 8a 1c bd 94 ae 4c bd
       0.042866223 0.043998998 -0.03821795 -0.04997118
000050 98 0b 81 bd 0d 06 4f 3d c1 22 c3 3d 4c 05 df 3c
       -0.063010395 0.05054288 0.09528113 0.027224205
000060 5a a7 32 bc 1b 63 7a bc da f2 e1 bc 61 7c a0 bc
       -0.0109041575 -0.015282418 -0.027581621 -0.019590558
000070 a7 89 4f bd a4 46 55 bd bc 76 48 bd 6d 37 c5 3d
       -0.050668385 -0.05206932 -0.04894136 0.09629712

down2.maxpool_conv.1.double_conv.4.weight f4 [32]
000000 d1 f4 b0 3f 60 2c a3 3f df a1 f2 3e ac bf b7 3e
       1.3824712 1.2747917 0.47389123 0.35888422
000010 e0 2b 86 3f f0 d1 30 3f ba 81 71 3f ad 8e 84 3f
       1.048214 0.6907034 0.9433857 1.0356041
000020 8c 2b 13 3f b5 77 95 3f 4a 6f a1 3f 9e 02 94 3f
       0.5748832 1.1677157 1.2612088 1.1563299
000030 15 3b 8f 3f f8 f5 2f 3f 2d fb 51 3f 01 02 1f 3f
       1.1189905 0.68734694 0.8202389 0.6211243
000040 93 b6 49 3f 42 85 b3 3f 47 68 4e 3f 16 1e a9 3f
       0.7879421 1.4025042 0.80627865 1.3212306
000050 0d 5d 8f 3f 69 54 3d 3f f4 76 48 3f c1 72 31 3f
       1.1200272 0.73956925 0.7830651 0.69315726
000060 fd 22 21 3f 67 fc 27 3f a0 79 46 3f 1f b9 3d 3f
       0.6294401 0.6561951 0.77529335 0.741106
000070 0d ac 8c 3f d9 47 44 3f 83 1d 85 3f cd 92 6f 3f
       1.0990006 0.7667213 1.0399631 0.93583375

down2.maxpool_conv.1.double_conv.4.bias f4 [32]
000000 21 a8 b0 3c 48 6c ca bd 92 40 84 be 4b 3c d4 be
       0.021564545 -0.09883934 -0.25830513 -0.4145225
000010 aa a2 8a 3d d0 0c d2 be 13 47 82 3d 66 e1 2a 3c
       0.06769307 -0.410254 0.063612126 0.010429716
000020 9b 9c 67 be 03 aa bf bd 92 cd 3d 3e 14 27 bb 3e
       -0.22618334 -0.09358599 0.1853545 0.36553252
000030 38 c2 a1 be 20 9b aa be c0 1e 0e be 5e 5d f5 be
       -0.3159349 -0.33321476 -0.13878918 -0.47922796
000040 c4 eb 70 be 1f 4f e8 3e c7 58 1f 3e 85 58 19 3e
       -0.23527437 0.45372865 0.1556121 0.14975174
000050 82 da 96 3e 82 5e 99 be 3c af 7b 3c ae c4 93 3d
       0.29463583 -0.29954916 0.015361603 0.07215248
000060 a9 ba c7 be 76 0f bd be 09 30 89 3d 7b a0 49 be
       -0.39009598 -0.36925858 0.06698615 -0.19690125
000070 bb 43 85 be e3 47 ac be 1b b2 bd 3e 5f f6 41 be
       -0.26028237 -0.33648595 0.37049946 -0.1894164

down2.maxpool_conv.1.double_conv.4.running_mean f4 [32]
000000 54 78 af 3f 42 a0 b7 40 99 94 1d 3e 7a 40 8c bf
       1.3708596 5.7383127 0.15388717 -1.0957177
000010 ae 20 24 40 3d de 53 c0 6d 1e c6 3e fd bc 07 40
       2.5644946 -3.3104393 0.38695088 2.12091
000020 b1 9f b8 bf a6 9f dd bf 57 cc 7c 40 68 1c ca bf
       -1.4423734 -1.7314346 3.949972 -1.5789919
000030 e5 52 f2 3f 49 3c 98 3f bc 84 76 bf 68 d4 ac bf
       1.8931547 1.1893398 -0.96296287 -1.3502321
000040 63 ce 4e c0 ec 37 06 c0 09 92 6a c0 37 77 da bf
       -3.2313468 -2.0971632 -3.6651633 -1.7067631
000050 6f 7e 49 c0 42 84 d2 bf aa 2e ad 40 40 9a 21 be
       -3.148342 -1.6446612 5.4119463 -0.15781498
000060 a5 2f 44 40 38 1f b2 bf 56 bc da bf 04 da 8f bc
       3.065408 -1.3915777 -1.7088726 -0.017560013
000070 0f 8d 6b 40 2b 7e 78 40 2e bb 28 c0 af 27 71 40
       3.6804845 3.8827007 -2.6364245 3.768047

down2.maxpool_conv.1.double_conv.4.running_var f4 [32]
000000 75 43 13 41 2e f0 00 42 fe 67 a4 40 33 54 8e 40
       9.203969 32.23455 5.1376944 4.447778
000010 db 96 7f 41 65 19 18 41 17 93 44 41 d5 06 5d 41
       15.97433 9.5062 12.285911 13.814168
000020 5f ba 16 41 be 24 b0 40 70 97 6a 41 f2 0c f7 40
       9.420501 5.504485 14.661972 7.72033
000030 1c 15 4e 41 fa e9 b9 40 d6 3f 23 40 58 ef 9e 40
       12.880154 5.8098116 2.5507712 4.966717
000040 bf c9 96 40 f4 24 d0 40 d7 9d e1 40 34 f5 db 40
       4.712127 6.504511 7.0505176 6.873682
000050 c6 9c 4c 41 30 b1 a6 40 af 43 50 41 86 4d 7d 40
       12.788275 5.2091293 13.016524 3.9578567
000060 6a 1e 46 41 0c ae d2 40 22 13 26 41 9e 22 46 41
       12.382425 6.583746 10.379671 12.383451
000070 37 44 4c 41 24 e3 41 41 3a 15 24 41 67 9a 95 41
       12.766654 12.117954 10.255182 18.700392
